lstm_model.pt (torch, 188567 bytes, 5 tensors)

lstm.weight_ih_l0 f4 [80, 561]
0	0xbd9c698a	-0.076373175
1	0xbe6d22c2	-0.2315779
2	0x3e0c4300	0.13697433
3	0xbe5cff59	-0.21581782
4	0xbe807d4f	-0.25095603
5	0x3bca64df	0.0061765756
6	0xbe78b936	-0.24289402
7	0xbdeeee0f	-0.116665
8	0xbd397034	-0.04527302
9	0x3e124f1f	0.14287995
10	0x3ddea4dd	0.10871289
11	0xbda2cc62	-0.07949139
12	0x3e5d62a8	0.21619666
13	0x3d87e3b9	0.066352315
14	0x3cb2f33a	0.021844495
15	0x3db655a3	0.08903053
16	0x3e1d506e	0.15362713
17	0x3d2d0b9f	0.04224741
18	0xbe8a878c	-0.2705654
19	0xbe178a26	-0.14798793
20	0xbbaeced5	-0.005334715
21	0x3c5424a0	0.012948185
22	0xbdefaaa9	-0.11702473
23	0x3de79619	0.11307926
24	0xbe3a9e47	-0.1822444
25	0xbcf30c7f	-0.029669045
26	0x3e555476	0.20833
27	0x3e83a04b	0.2570823
28	0x3e05bd61	0.13060524
29	0x3c9c0f25	0.01905019
30	0x3d081ffa	0.03323362
31	0x3e57f52e	0.21089622
32	0xbe3df7d0	-0.18551564
33	0xbd7f5b09	-0.062342677
34	0x3d9f3bfe	0.077751145
35	0x3c768603	0.015046599
36	0xbe89e074	-0.26929057
37	0xbe13ad19	-0.144215
38	0xbe91fdcc	-0.28513944
39	0x3e4f70de	0.20257899
40	0x3e5a69d7	0.21329437
41	0x3cb064fd	0.02153253
42	0x3d331357	0.043719616
43	0x3da8eca0	0.08248258
44	0x3d3f8179	0.046754334
45	0xbe7c2293	-0.24622564
46	0xbe22dd28	-0.15904677
47	0x3dc14554	0.094370514
48	0xbe57f81d	-0.21090741
49	0x3d2c6fdb	0.04209886
50	0xbe245dae	-0.16051361
51	0x3e73ea27	0.23819791
52	0xbd9ed856	-0.077561066
53	0x3979789d	0.00023791422
54	0x3d839b28	0.06426078
55	0xbe43d39a	-0.19123688
56	0x3e626c9c	0.22111744
57	0xbe27956f	-0.16365598
58	0xbe61f8c7	-0.22067557
59	0xbdd9adba	-0.10628839
60	0xbd498487	-0.049198654
61	0x3cc97450	0.024591595
62	0xbde2ba6b	-0.11070713
63	0xbdd8e0fd	-0.10589788
64	0xbe916552	-0.28397614
65	0xbd533cb4	-0.051571563
66	0xbe16b3ae	-0.1471698
67	0x3d9663a2	0.07343222
68	0xbdd29525	-0.10282353
69	0xbe85d108	-0.2613604
70	0x3d6bc061	0.057556514
71	0x3ce3f008	0.027824417
72	0xbdb3e342	-0.0878358
73	0xbd8508f4	-0.06495848
74	0x3de3c7f6	0.11122124
75	0xbde14a8a	-0.11000545
76	0x3ce302f8	0.027711377
77	0x3e1dc57e	0.15407369
78	0x3da87e58	0.08227223
79	0x3db74656	0.089489624
80	0x3e03d2d3	0.12873392
81	0x3eb70c27	0.3575146
82	0x3e856f69	0.26061562
83	0x3db79269	0.089634724
84	0x3e11cbbb	0.14237873
85	0xbd38cc32	-0.04511661
86	0xbcdd58ef	-0.027019946
87	0xbe07d7cd	-0.13265915
88	0xbd7c4744	-0.0615914
89	0xbbd225d4	-0.006413201
90	0x3de4b06c	0.11166462
91	0x3e11a3e3	0.14222674
92	0x3c66c8ea	0.014085988
93	0x3e4c290b	0.19937532
94	0x3e14de24	0.14537865
95	0x3d41d864	0.047325507
96	0xbe8243bb	-0.254423
97	0x3dc953ef	0.09830462
98	0xbe1f8e64	-0.15581661
99	0x3c2353ea	0.009968737
100	0xbc8f033e	-0.0174576
101	0x3dd0e35e	0.10199617
102	0xbcce16a6	-0.025157284
103	0xbe73a1e0	-0.23792219
104	0xbdeee2cf	-0.11664354
105	0x3df91fc1	0.1216426
106	0xbdb3bdc4	-0.08776429
107	0x3d3dd930	0.046349704
108	0x3d9d8755	0.07691828
109	0x3d81f331	0.06345213
110	0xbdfc6a13	-0.123249196
111	0xbd4dfe23	-0.05029119
112	0xbe123e63	-0.14281611
113	0xbdbe012a	-0.09277566
114	0x3d13b9a9	0.03606573
115	0x3df923fb	0.12165066
116	0x3e958fbd	0.29211226
117	0xbd13579d	-0.035972226
118	0x3e0001dc	0.1250071
119	0xbdf78f98	-0.12087935
120	0xbe391f00	-0.18078232
121	0xbe2bcbea	-0.16777006
122	0xbdfd55e2	-0.123698965
123	0x3e0e9e09	0.13927473
124	0x3e0da495	0.13832314
125	0xbcb40185	-0.02197338
126	0xbe0f5613	-0.13997678
127	0xbe801602	-0.2501679
128	0x3d979609	0.07401664
129	0xbe05abfa	-0.13053885
130	0x3d067c8c	0.03283362
131	0xbe417407	-0.18891917
132	0x3e798278	0.24366176
133	0xbe0226c8	-0.12710106
134	0x3d835a7b	0.06413742
135	0xbe8899f5	-0.2667996
136	0x3ddf99b6	0.1091799
137	0xbde68014	-0.11254898
138	0x3b18c35d	0.0023309805
139	0xbe0abd53	-0.13548784
140	0xbddf0556	-0.108896896
141	0x3c38b33c	0.011273202
142	0xbe4bd3f4	-0.19905072
143	0xbe15e72a	-0.14638963
144	0xbd11af22	-0.03556741
145	0xbc6eb062	-0.01456842
146	0x3d83f506	0.06443219
147	0xbb0950f5	-0.0020952795
148	0x3ce1f9ce	0.027584936
149	0xbdb79944	-0.0896478
150	0x3d81020d	0.06299219
151	0x3e07ed6b	0.13274162
152	0x3e66386f	0.22482465
153	0x3e3c9d94	0.18419486
154	0xbdd20047	-0.10253959
155	0x3e52881e	0.20559737
156	0x3da2f644	0.07957128
157	0xbc6f6ae3	-0.014612886
158	0x3e5d4438	0.21608055
159	0xbe3455e3	-0.17610888
160	0xbe21e97c	-0.15811723
161	0xbd8647f7	-0.06556695
162	0xbdc2549b	-0.094887935
163	0x3ce9cb4d	0.028539324
164	0x3db9a421	0.09064508
165	0xbe01620f	-0.12635063
166	0x3e043d94	0.12914115
167	0xbe5bf223	-0.21479087
168	0xbdf2cbc0	-0.118552685
169	0xbe6e0a28	-0.23246062
170	0x3de8aea3	0.11361434
171	0x3d506a02	0.050882347
172	0x3e15364a	0.14571491
173	0xbe144beb	-0.14482085
174	0x3e81a64f	0.25322196
175	0x3ceedf65	0.029159257
176	0xbddf576f	-0.109053485
177	0xbe342539	-0.17592324
178	0xbe00fe78	-0.12597072
179	0xbdfb8ed7	-0.12283104
180	0x3e23c3e6	0.15992698
181	0x3dfede14	0.12444702
182	0xbe6343e0	-0.22193861
183	0x3dc81e57	0.09771412
184	0xbe7848be	-0.24246499
185	0xbcc315bf	-0.02381408
186	0x3e64aaa7	0.22330724
187	0x3e5f4fd0	0.2180779
188	0x3d734074	0.05938764
189	0x3dbcee2c	0.09225115
190	0x3e8e6e71	0.27818635
191	0x3e07a7b6	0.1324757
192	0xbe1375b5	-0.1440037
193	0x3e28bb48	0.16477692
194	0xbe1faa29	-0.15592255
195	0x3c90ce4f	0.0176765
196	0x3e05826a	0.1303803
197	0x3e09abc2	0.13444427
198	0x3eb57186	0.35438174
199	0xbd75076e	-0.05982154
200	0xbe84ab2f	-0.25911853
201	0x3c9ab904	0.01888705
202	0x3e24750b	0.16060273
203	0x3dfbb109	0.12289626
204	0xbe32f71f	-0.17477082
205	0x3dfa62ce	0.12225877
206	0x3dd7fbd0	0.10546076
207	0xbdeca701	-0.11555291
208	0x3dc27cfe	0.094964966
209	0xbe7b8011	-0.24560572
210	0x3c0075c3	0.007840577
211	0xbb8e31d3	-0.0043394356
212	0xbe0f7b2c	-0.1401183
213	0xbddd9007	-0.10818487
214	0xbd80b9f9	-0.062854715
215	0xbd277d54	-0.040891007
216	0x3d8486a4	0.06470993
217	0xbcbdc23b	-0.023163905
218	0xbd0c7812	-0.034294195
219	0xbe505a13	-0.2034686
220	0x3d4606df	0.048346397
221	0xbdb3b0fc	-0.087739915
222	0xbe8be54f	-0.27323386
223	0x3d0c92b3	0.03431959
224	0xbd4c0c4d	-0.04981642
225	0x3dfdc4fb	0.12391087
226	0x3da1bb36	0.07897036
227	0x3db6bb6e	0.08922468
228	0xbe35dab2	-0.17759207
229	0xbe007b23	-0.12546973
230	0xbe5d1073	-0.21588306
231	0xbe8befce	-0.27331394
232	0xbe475686	-0.194666
233	0xbdb87c37	-0.09008067
234	0xbe834fba	-0.25646764
235	0x3e687f6f	0.22704862
236	0xbc95b100	-0.018272877
237	0xbe1308aa	-0.14358774
238	0xbdc18eea	-0.09451087
239	0xbdcb7557	-0.0993449
240	0x3b03340d	0.0020020038
241	0x3e1c5096	0.15265116
242	0xbe740c96	-0.23832926
243	0xbdd23d96	-0.10265653
244	0xbcf20f2e	-0.029548254
245	0x3d5c8896	0.053841196
246	0x3d92b27c	0.071629494
247	0x3c0aceb8	0.008472137
248	0x3e5f7a21	0.21823932
249	0xbea3bf4a	-0.3198188
250	0xbd153033	-0.03642292
251	0xbda19180	-0.0788908
252	0xbe6f5c9e	-0.23375174
253	0xbdd07480	-0.101784706
254	0xbddb8f81	-0.107207306
255	0xbe614e41	-0.22002508

lstm.weight_hh_l0 f4 [80, 20]
0	0x3e16a958	0.14713037
1	0xbeaf35a4	-0.34220612
2	0xbe93f9a0	-0.28901386
3	0xbe420350	-0.18946576
4	0x3d6d04da	0.057865955
5	0x3e9cae3f	0.3060169
6	0x3dc0b5a1	0.09409643
7	0x3e12f247	0.14350234
8	0xbdd8e2ad	-0.1059011
9	0x3e34e282	0.17664531
10	0xbed6ae00	-0.41929626
11	0x3ecd9436	0.40152138
12	0xbf72fdb2	-0.9491836
13	0xbe1f2d10	-0.15544534
14	0xbe250e04	-0.16118628
15	0x3e8051d1	0.2506242
16	0x3e7b58d9	0.24545611
17	0x3e11850b	0.14210908
18	0x3cb601a9	0.022217588
19	0x3e96463e	0.29350466
20	0x3d085473	0.033283662
21	0xbc74e36d	-0.014946801
22	0x3e363e3a	0.17797175
23	0x3e16583e	0.14682099
24	0x3e05898f	0.13040756
25	0x3e563f5b	0.20922606
26	0xbe852285	-0.260029
27	0x3e1bfc85	0.15233047
28	0x3db508c2	0.08839561
29	0x3e857acf	0.26070258
30	0xbe04ab44	-0.12955958
31	0x3e81b5ec	0.25334108
32	0xbf0d8fc7	-0.5529751
33	0xbe4df29b	-0.20112078
34	0xbe468331	-0.19385983
35	0x3d89fc60	0.0673759
36	0x3e8eddc9	0.27903584
37	0xbe1b35a5	-0.15157183
38	0xbe5be39c	-0.21473545
39	0x3e10efa9	0.14153923
40	0x3f1b75b6	0.6072649
41	0xbf56e420	-0.8394184
42	0xbf6263a0	-0.88433266
43	0xbd317119	-0.04332075
44	0x3e37c88d	0.17947598
45	0x3eff97b8	0.4992044
46	0xbe84c5fa	-0.25932294
47	0x3eade1e0	0.3396139
48	0xbeebdb77	-0.46065876
49	0x3f3a33fc	0.7273557
50	0xbf1a2411	-0.6021128
51	0x3f194440	0.59869766
52	0xbfe7c26f	-1.8106211
53	0xbc5e9d68	-0.013587333
54	0xbd9cc95f	-0.07655596
55	0x3ea179cb	0.31538233
56	0x3ec3b0be	0.3822078
57	0x3d944555	0.072397865
58	0x3e4dad69	0.20085682
59	0xbdf3d59c	-0.11905977
60	0xbd8a452f	-0.06751477
61	0xbcd4d7fd	-0.025981897
62	0xbf953a34	-1.1658387
63	0xbea65463	-0.32486257
64	0xbe70bb17	-0.23508869
65	0xb9ac5adc	-0.00032874092
66	0xbe92b6a2	-0.28654963
67	0x3e8b8d84	0.27256405
68	0xbe75e4b4	-0.24013025
69	0x3ed58780	0.4170494
70	0xbee389e5	-0.44441143
71	0x3f1cb165	0.6120818
72	0xbf79e11d	-0.9760912
73	0xbf480e1e	-0.7814654
74	0xbdf35103	-0.11880686
75	0xbee14895	-0.44000688
76	0x3e1aa781	0.1510296
77	0xbcdb19b9	-0.026745664
78	0xbe85f9d8	-0.26167178
79	0x3e38467f	0.17995642
80	0x3e60f9c3	0.21970277
81	0x3e1bdf90	0.15222001
82	0xbdf018bd	-0.117234685
83	0xbcb285a9	-0.02179225
84	0xbe1045e7	-0.14089166
85	0xbd7c1a2d	-0.0615484
86	0x3e025395	0.12727197
87	0x3e3ec802	0.18630984
88	0x3bce7728	0.0063008256
89	0x3e16cd94	0.1472686
90	0xbe84bf58	-0.25927234
91	0xbe3ec3cd	-0.1862938
92	0xbda18469	-0.07886583
93	0x3e1942d3	0.14966898
94	0xbe8bdf1f	-0.27318665
95	0x3e0dc0d1	0.13843085
96	0x3e556fb1	0.20843388
97	0xbe5a8df2	-0.2134321
98	0xbded5d7c	-0.11590096
99	0xbde9d865	-0.11418227
100	0x3de113f8	0.10990137
101	0xbe7ee975	-0.24893744
102	0x3e3dc208	0.18531048
103	0xbe861e31	-0.2619491
104	0x3e952af8	0.29134345
105	0xbe0aaf2b	-0.13543384
106	0xbe84b837	-0.25921795
107	0x3e836cc2	0.25668913
108	0xbe0cf589	-0.13765539
109	0x3dae3214	0.085056454
110	0x3cad8ca9	0.021185236
111	0x3e86ce64	0.2632934
112	0x3d9e2668	0.07722169
113	0xbc31fd1c	-0.010863569
114	0xbe79bbb6	-0.24388012
115	0xbd977bcf	-0.073966615
116	0x3dbee4d3	0.093209885
117	0xbe3f9947	-0.18710814
118	0xbe85b1bb	-0.2611216
119	0xbcdd79ef	-0.027035682
120	0x3df43fd2	0.11926235
121	0x3be8710b	0.007093554
122	0xbdc5e9c4	-0.09663728
123	0xbd9affc8	-0.07568318
124	0xbd05f99c	-0.03270875
125	0x3e3c1797	0.18368374
126	0xbd6b6135	-0.05746575
127	0x3e53dfdc	0.20690864
128	0x3e1d84db	0.15382712
129	0xbdbde92b	-0.09272989
130	0x3ceb3fc3	0.028716927
131	0xbdb05619	-0.08610172
132	0x3dd16c29	0.10225708
133	0xbdec4792	-0.115370885
134	0xbdba3910	-0.09092915
135	0xbc1a9646	-0.009435242
136	0xbc26543f	-0.010151922
137	0xbd9d6217	-0.07684725
138	0xbc29988b	-0.0103513105
139	0xbd9b7074	-0.07589808
140	0x3e476610	0.19472528
141	0xbe79d813	-0.24398832
142	0xbd845177	-0.06460851
143	0x3dea29a2	0.11433722
144	0x3e330ba5	0.17484911
145	0xbe16c27d	-0.14722629
146	0xbbb5c07c	-0.0055466276
147	0x3e23044b	0.15919606
148	0xbdd60e23	-0.10451915
149	0xbdc8d961	-0.09807087
150	0x3e94d2cf	0.29067084
151	0xbe269d49	-0.16270937
152	0x3ede58bd	0.43427077
153	0x3db61bfd	0.08892057
154	0xbcb55224	-0.022133894
155	0xbe51a1c9	-0.20471872
156	0x3d59fd1b	0.053219896
157	0xbdcf23ca	-0.10114248
158	0xbe82b188	-0.2552607
159	0x3dc106d3	0.0942513
160	0x3db429dc	0.087970465
161	0xbe6ab3d1	-0.22920157
162	0x3d4f396c	0.05059187
163	0xbe5c5974	-0.21518499
164	0xbdf335c4	-0.11875489
165	0x3e718b62	0.23588327
166	0xbe50fc3d	-0.20408721
167	0xbe1ca80d	-0.15298481
168	0x3ddc6994	0.10762325
169	0x3d9ca693	0.07648959
170	0xbf02ab67	-0.5104279
171	0x3e021420	0.1270299
172	0xbf34ba7b	-0.70597047
173	0xbe8a08e8	-0.2695992
174	0x3dafb8a9	0.08580143
175	0x3d2fcbab	0.042918842
176	0x3e37dfb9	0.17956437
177	0x3e211164	0.1572929
178	0xbd60a995	-0.054849226
179	0x3e804153	0.25049838
180	0xbddfba97	-0.10924261
181	0xbd902ef0	-0.070402026
182	0xbe51ab14	-0.20475417
183	0xbd38170a	-0.044943847
184	0x3e77825d	0.24170823
185	0x3d6b8a4e	0.057504945
186	0x3ded0ed0	0.11575091
187	0xbdef31a8	-0.11679393
188	0xbd2516b2	-0.040304847
189	0xbdee0907	-0.116228156
190	0x3d030aba	0.03199265
191	0x3e8029cd	0.2503189
192	0x3db17752	0.08665337
193	0xbde5dbaf	-0.11223542
194	0xbe276cc2	-0.16350082
195	0x3e785fec	0.24255341
196	0xbcf28815	-0.029605905
197	0x3d03fb4b	0.032222074
198	0x3d9765c0	0.07392454
199	0xbcc9e243	-0.024644023
200	0xbe134078	-0.14380062
201	0xbd8af4a1	-0.067849405
202	0xbc78a873	-0.01517688
203	0xbe032748	-0.12807953
204	0xbe092c67	-0.13395844
205	0x3e921df8	0.2853849
206	0xbdb84a9c	-0.089986056
207	0x3df4d1bc	0.11954066
208	0xbe22c1d7	-0.15894257
209	0xbe10fbb9	-0.14158525
210	0xbe9356d2	-0.28777176
211	0x3e3b2c72	0.18278673
212	0x3d0006a2	0.031256326
213	0xbd9c5f2f	-0.07635342
214	0x3d0c7da2	0.0342995
215	0x3ded8e82	0.11599447
216	0x3e140e5d	0.14458604
217	0x3e119f36	0.1422089
218	0x3e17cfb1	0.14825322
219	0x3deece8e	0.11660491
220	0x3e84f80e	0.259705
221	0xbdc20772	-0.09474076
222	0xbde6a119	-0.11261196
223	0x3dccd95e	0.10002397
224	0xbdc1be14	-0.09460083
225	0x3e48b77e	0.19601247
226	0xbe61bc52	-0.22044495
227	0x3e8ae578	0.27128196
228	0xbe2a3335	-0.16621096
229	0x3d865e86	0.06560998
230	0xbd45517a	-0.048173405
231	0x3e0ddb64	0.13853222
232	0xb9dab994	-0.00041718467
233	0x3e0a015b	0.1347708
234	0xbc13160b	-0.008977423
235	0x3cd81741	0.026378276
236	0x3dfd125b	0.12357017
237	0xbe8f8bc7	-0.2803633
238	0xbe2e1d72	-0.1700342
239	0x3e061441	0.13093664
240	0xbdc72431	-0.097237
241	0x3de82c87	0.11336618
242	0xbe0b69da	-0.13614598
243	0x3d822194	0.06354061
244	0x3e7dd350	0.2478764
245	0x3db663c0	0.089057446
246	0x39a6c099	0.00031805484
247	0xbd97335f	-0.07382845
248	0xbe896e46	-0.26841944
249	0xbdf3b17e	-0.11899088
250	0x3caac172	0.020844195
251	0x3df2a092	0.118470326
252	0xbd8f930b	-0.07010468
253	0x3e131196	0.14362177
254	0xbca264a6	-0.019823384
255	0xbdcc655c	-0.0998027

lstm.bias_ih_l0 f4 [80]
0	0x3e7a875b	0.24465697
1	0xbd766cb6	-0.06016227
2	0xbd88376e	-0.066511974
3	0x3dcca31e	0.0999205
4	0x3e05e009	0.13073744
5	0x3e7e4810	0.24832177
6	0xbe267603	-0.16255955
7	0x3db88010	0.09008801
8	0xbdb07169	-0.08615381
9	0x3e69b267	0.22821961
10	0xbdd27189	-0.10275561
11	0x3d81997a	0.063281015
12	0xbc81efe0	-0.015861452
13	0xbe874052	-0.2641626
14	0xbd02239c	-0.03177224
15	0x3d683796	0.056693636
16	0x3dc6db8e	0.097098455
17	0x3daae0b3	0.08343639
18	0xbe72a00e	-0.23693869
19	0xbda5549f	-0.08072781
20	0xbca3ed58	-0.020010635
21	0x3cf78aed	0.030217612
22	0xbdd8c223	-0.10583904
23	0xbdf2de24	-0.11858776
24	0x3d5dc718	0.05414495
25	0x3e66b868	0.22531283
26	0x3d1d657d	0.038426865
27	0xbe0aded3	-0.13561563
28	0x3db268b4	0.08711377
29	0xbd1a6221	-0.03769124
30	0xbcfef8a3	-0.031124419
31	0x3c8b8022	0.017028872
32	0x3e56d4cf	0.20979618
33	0xbd7ff16c	-0.062486097
34	0xbd6c6917	-0.05771741
35	0xbe27a901	-0.16373064
36	0xbc8e5694	-0.017375268
37	0xbd9f1b44	-0.077688724
38	0xbdd6ffba	-0.10497995
39	0xbe84099b	-0.25788578
40	0x3c9dedb6	0.019278388
41	0x3b4a1ff8	0.0030841809
42	0x3e1472a5	0.14496858
43	0x3deb3aa6	0.11485796
44	0xbe25a8fe	-0.16177747
45	0x3d885e67	0.06658631
46	0xbe74cd25	-0.23906381
47	0x3d8ca311	0.0686704
48	0xbe3817ae	-0.17977783
49	0xbd40d515	-0.04707821
50	0xbe0fdf43	-0.14050011
51	0xbcab02ed	-0.020875419
52	0xbe16acd6	-0.14714369
53	0x3edafb76	0.42769974
54	0xbe1e67b9	-0.15469255
55	0xbd8da6dc	-0.069165915
56	0x3e22bcac	0.15892285
57	0x3c36f999	0.011167907
58	0xbdb872ed	-0.09006295
59	0xbe06f47f	-0.13179205
60	0x3dc2a870	0.09504783
61	0xba99f4a9	-0.0011745888
62	0x3e463850	0.19357419
63	0x3d78ff43	0.06079031
64	0xbd9759c5	-0.07390169
65	0xbd28cbde	-0.041210048
66	0x3e7f84c2	0.24952987
67	0x3cef2008	0.029190078
68	0xbba3e237	-0.005001332
69	0x3e9aebb7	0.3025796
70	0x3e198973	0.14993839
71	0x3cdebb91	0.027189048
72	0xbd8b76c9	-0.06809766
73	0x3dcee240	0.101017475
74	0x3e4cafc7	0.19988929
75	0xbdb66d1f	-0.08907532
76	0x3d7a3144	0.06108214
77	0xbe0ef976	-0.1396235
78	0xbb5e8aa9	-0.003395716
79	0x3d48824d	0.04895239

lstm.bias_hh_l0 f4 [80]
0	0x3e95da44	0.29268086
1	0x3e381d3f	0.17979906
2	0xbd5a521c	-0.05330096
3	0xbe86eca9	-0.26352432
4	0xbd93ec46	-0.072228
5	0xbdde6c76	-0.10860531
6	0x3d8fd639	0.070232816
7	0xbe16f3ae	-0.14741394
8	0x3d8ff7aa	0.0702966
9	0xbdc6f76b	-0.0971516
10	0x3e3e7d2c	0.18602437
11	0x3d82b51d	0.06382201
12	0x3df205e4	0.1181753
13	0x3d44d307	0.048052814
14	0xbe531358	-0.20612848
15	0x3d53321e	0.051561467
16	0x3e059cfa	0.13048163
17	0xbe81e7d3	-0.2537218
18	0xbe072f86	-0.13201723
19	0xbe260aed	-0.16215105
20	0x3dd24b06	0.10268216
21	0x3e89fc21	0.26950172
22	0xbe4ab8d0	-0.19797063
23	0xbb88be4a	-0.004173075
24	0x3e426c2e	0.1898658
25	0x3e10c2bf	0.1413679
26	0xbdffb823	-0.12486293
27	0x3ca9b4ef	0.020716159
28	0x3c6e7a96	0.014555594
29	0x3db24f55	0.08706538
30	0xbe0877d3	-0.1332696
31	0xbe128a2b	-0.1431052
32	0xbda17888	-0.07884318
33	0xbbef0ed6	-0.0072954698
34	0xbe561f10	-0.20910287
35	0x3e17e874	0.14834768
36	0xbc50917d	-0.01273
37	0xbcfe3fc0	-0.031036258
38	0x3d4666da	0.04843793
39	0xbcf97708	-0.030452266
40	0x3e9955a6	0.29948157
41	0x3d0c1ec4	0.034209028
42	0xbc0e2233	-0.008675146
43	0xbdda993a	-0.10673757
44	0xbde84d89	-0.11342914
45	0x3e00442c	0.12526006
46	0x3e005610	0.1253283
47	0xbb01ac6a	-0.0019786605
48	0xbe9046c1	-0.2817898
49	0x3dc5a6b9	0.096509404
50	0xbbb63917	-0.005561005
51	0x3df59172	0.11990632
52	0xbe5b7acb	-0.2143356
53	0x3eb319ee	0.3498072
54	0xbc8a69e3	-0.016896194
55	0x3dc662e3	0.0968683
56	0xbe19097f	-0.14945029
57	0xb9ab0204	-0.00032617163
58	0xbda4ff31	-0.080564864
59	0xbde2a586	-0.11066727
60	0xbdbe17d9	-0.09281892
61	0x3c9295ab	0.017893633
62	0x3e2c7131	0.16840054
63	0x3cd53401	0.026025774
64	0xbd17b909	-0.037041698
65	0x3ce46ad2	0.027882967
66	0xbd93bc3e	-0.07213639
67	0x3b6ecdea	0.0036438652
68	0x3e64dede	0.22350642
69	0x3dc9f50d	0.09861193
70	0x3da20f3f	0.07913064
71	0x3e0dcf9f	0.13848732
72	0xbc8a9c8b	-0.016920349
73	0xbdd013db	-0.10160037
74	0xbe2e9ef2	-0.1705282
75	0x3c423f47	0.011855907
76	0x3e8a6cec	0.27036226
77	0xbd39deeb	-0.045378607
78	0xbe594ac8	-0.21219933
79	0xbdef8a4d	-0.11696301

linear1.weight f4 [1, 20]
0	0x3e6f0aa5	0.23343904
1	0xbe11b874	-0.1423052
2	0xbfa6d255	-1.3032938
3	0xbe98e23b	-0.298601
4	0x3fd30e05	1.6488653
5	0x3e9d8bdd	0.3077077
6	0xbe2c3b10	-0.16819406
7	0x3e8d99e7	0.2765648
8	0xbe0abaf2	-0.13547876
9	0x3dceb84e	0.10093747
10	0xbdd3f73e	-0.10349892
11	0x3de86a97	0.113484554
12	0xbe2d8b26	-0.16947612
13	0xbf83f399	-1.0308715
14	0xbbafc5f1	-0.0053641726
15	0x3f95ef9b	1.1713747
16	0x3e56a1c6	0.20960149
17	0x3e207340	0.15668964
18	0x3df048e1	0.117326505
19	0x3e058b57	0.13041435
