lstm_model.pt (torch, 188195 bytes, 5 tensors)

lstm.weight_ih_l0 f4 [80, 561]
00000000: ba32 cdbd 80ef dcbe b5a5 53be 5c97 623e
00000010: 263c e53d fa48 563c 2c75 5f3e 1273 9e3d
00000020: 9b0b d83d 4475 60be 9ae1 603e 2d1c 243e
00000030: f042 d53e 3b9e 7e3e c4ae 283e 4b86 a63e
00000040: 9189 683e 2624 9abd 88ef 87bd 51ab 9abc
00000050: 6536 e13d 363b 793d e8e0 35be be5d 473e
00000060: c9f7 353a 5c4a 2a3e 5a66 193e d317 20bd
00000070: 3c5e 5fbd 090f f03d 0d37 193e 0c30 013f
00000080: 3925 983e 22e8 1a3d 3b59 953e eaa1 593e
00000090: 6f87 ac3e f18f 0dbf d88b 663d 63a7 0fbe
000000a0: 29fe 28bf 0663 943c ab21 8dbd 6906 a33d
000000b0: 80a9 003c 3ce6 8c3e 6327 f1bd 6504 c9bd
000000c0: b138 48bd b7dd 89bf 6162 17be 469b 943e
000000d0: 0ea6 33bf fbe2 08be 1a80 8abe e141 65bf
000000e0: d315 0dbf 6f3d d23e d25b 933e 0e12 cd3c
000000f0: 963b 24be edbc 1e3e ba70 373e f21f 1cbe
00000100: 7349 78bd 9846 e03c d203 973e 440f 193e
00000110: 5687 2c3e f668 9abe f888 093d ffe3 063e
00000120: 0d37 0fbe 8f28 963a 2136 de3d 2f84 553e
00000130: 5111 303d 60c6 96bb fe9b 05bd 79de a03c
00000140: 05a2 963c 1ba4 01bd 4322 9d3c 66e8 14be
00000150: ef14 b4bd 1622 b6bd 799a 81be 901f 5bbe
00000160: 5b0a 83bd f16f 6f3e b3fc ac3d 256a 803c
00000170: ea3b 003e 5490 d93d 7472 0c3e 57a2 41bd
00000180: 9e88 553e 866f f63d a20a c2bd de89 68bd
00000190: 5712 43bc 697e 9b3d eae0 0abe 2336 b23d
000001a0: 1f97 b0be acf2 993e d68b 4e3e dca5 19bc
000001b0: 8399 a3bd f4d2 0bbd 2022 f53d 4789 cbbd
000001c0: b849 cabd 70ec c6bd 4a78 d0bd fb76 633e
000001d0: d7e6 0b3e cfd6 e03d 54e1 debd 9980 f33d
000001e0: 3957 3b3e e96b 99bd b208 933d 3188 843e
000001f0: fb99 22be c3ab f43d d91f 8dbd 176e 47be
00000200: 967c 563e 125f 5e3d 608c 01be a0e7 61be
00000210: 0284 7ebd 40e5 b5be 7418 e8bc 2625 da3d
00000220: a676 04be ce36 383e 4a0e 143e 6539 9fbd
00000230: 5463 7e3c 0027 a73e 31fa 7cbd 7b90 6d3e
00000240: 8b3e 1bbc 8355 87be ee37 27be 21e4 023e
00000250: 8ed2 973d 9a17 4b3e 05de 153e ae99 813c
00000260: b6eb f43c 8a25 663e 1d47 2f3e 4121 323d
00000270: cc8d d9bc 83bc 6a3e 605a 13bd 18ea 59be
00000280: 9344 193b 4924 53bd 99b1 b8bc 1605 65be
00000290: 1e5a 44be b0a9 23be 9b16 9cbe b519 f4bc
000002a0: 3346 c6be ea33 d43d d1a6 afbd f74a d33d
000002b0: ba06 aabd bf28 123d 8d56 c23d 6b2b 6d3d
000002c0: b06f 293e 3b60 ebbd 8591 0f3e 85ad 17be
000002d0: 40de 0fbe d2a9 293e 27c8 19bc 91e5 d33d
000002e0: 8642 f9bc 9e5f 873d 6804 fb3d bd58 063d
000002f0: 6fe7 843d aeb5 303e e584 4d3c 3bbe d63b
00000300: 11a8 933c 4abc 833d c28d a93e de15 1e3e
00000310: 6aaa a4bd f732 b2bd 2e71 48be 0b24 863d
00000320: 35a3 9f3d ae35 f93e 8105 c0bd 18ff f63d
00000330: 7cd3 813e 9e8f 26ba 07bf 693e 649c bbbe
00000340: 882e 823d a876 a7bd 529c 883d be03 73be
00000350: 837d 36bd 2247 983e 30ff d93e 03d5 153e
00000360: 6539 093e 0d9f 0abe fcbe 893e 8250 5cbd
00000370: f55c 75be 8b02 383e f59f 063d e6be 64be
00000380: 7cb5 343e 9d17 023e 7937 47bd 9dd9 50be
00000390: 1f6b 21bc 7306 443d 1df4 1a3d 1d84 81be
000003a0: b13c 003e 6c9c 943d 6e18 293e 3225 a53d
000003b0: 2ac6 193e 7b2b 0fbc 8693 bd3d f17d 9c3d
000003c0: ee68 f83d 8520 6c3d 502b 9e3e f37a 80bd
000003d0: 2d43 763e 587f dd3d 6ef5 113c c752 2c3e
000003e0: eda7 6abd f50a 09bd b85f 0ebe a5e8 48be
000003f0: 4905 b9bc 5fc5 033e 533f 4f3d ea4c 003e
-0.10019441 -0.43151474 -0.20668681 0.22128052 0.11193113 0.013078922 0.21822041 0.07736792
0.105490886 -0.21919733 0.2196106 0.16026373 0.41652632 0.24865048 0.16472918 0.32524332
0.22708727 -0.07526426 -0.06637484 -0.018880518 0.10996703 0.060847484 -0.17761576 0.19469354
0.0006941525 0.16629928 0.1498045 -0.03908522 -0.05453323 0.11721618 0.14962406 0.5046394
0.297159 0.037819035 0.2916964 0.21253172 0.33697078 -0.5529776 0.05628571 -0.14028697
-0.6601282 0.018113624 -0.06891187 0.07960207 0.007852912 0.27519405 -0.117750905 -0.09815291
-0.04888219 -1.0770787 -0.14783622 0.29024714 -0.70175254 -0.13367836 -0.2705086 -0.8955365
-0.55111426 0.41062495 0.2878099 0.025033023 -0.16038355 0.15501757 0.17914096 -0.15246561
-0.06061692 0.027377412 0.29495102 0.1494723 0.16848502 -0.30158204 0.03357789 0.13172911
-0.13985844 0.0011456179 0.10850168 0.20851205 0.042985264 -0.004601285 -0.03261947 0.019637333
0.018387804 -0.031650644 0.019181376 -0.14541778 -0.08793055 -0.0889322 -0.25313166 -0.21398759
-0.063984595 0.23382546 0.08446636 0.015675614 0.12522855 0.106232315 0.13715535 -0.04727396
0.20852897 0.1203299 -0.09474684 -0.056772105 -0.011906228 0.0759247 -0.1356236 0.08701732
-0.34490296 0.30067956 0.2017053 -0.009377923 -0.079882644 -0.034136727 0.119693995 -0.09938293
-0.09877342 -0.097130656 -0.10179193 0.22213356 0.13662277 0.109784715 -0.10882822 0.118897624
0.18294992 -0.07491285 0.07179393 0.25885156 -0.15879051 0.119468234 -0.0689084 -0.1947559
0.20945963 0.054289885 -0.12651205 -0.22061014 -0.06213761 -0.35526466 -0.028331973 0.10651617
-0.12935886 0.17989656 0.14458576 -0.07774619 0.015526611 0.32646942 -0.06176204 0.23199646
-0.009475361 -0.26432428 -0.16329929 0.12782337 0.07413207 0.19833222 0.14635475 0.01582035
0.029897552 0.22475258 0.17116971 0.043488745 -0.026556872 0.22923474 -0.03597486 -0.21280706
0.002338682 -0.051548276 -0.022545623 -0.22365221 -0.19175002 -0.159827 -0.30485997 -0.029797414
-0.38725433 0.10361464 -0.085767396 0.10317033 -0.08302064 0.03568339 0.094891645 0.057902735
0.16546512 -0.11492964 0.14020355 -0.14812286 -0.14049625 0.16568688 -0.009386099 0.10346521
-0.030427229 0.066100344 0.122567 0.03279947 0.06489455 0.17256805 0.012543892 0.006553439
0.018024476 0.06432398 0.33115965 0.15438029 -0.080403164 -0.08701127 -0.19574425 0.065498434
0.07794801 0.48673767 -0.0937605 0.12060374 0.25356662 -0.0006353798 0.22826777 -0.36642754
0.063565314 -0.08176929 0.06670441 -0.23731896 -0.04455329 0.2974177 0.42577505 0.14632039
0.134008 -0.13537236 0.26903522 -0.053787716 -0.23961242 0.1796972 0.03286739 -0.22338447
0.17647356 0.1270432 -0.048636887 -0.20395513 -0.0098522 0.047857713 0.03783046 -0.25296107
0.12523152 0.072563976 0.16513225 0.08063735 0.15017 -0.008738394 0.092566535 0.07641209
0.12129389 0.0576482 0.3089242 -0.06273451 0.24049063 0.108153045 0.008908613 0.16828452
-0.057289053 -0.033457715 -0.13903701 -0.19619997 -0.022585528 0.1286826 0.0505975 0.1252934

lstm.weight_hh_l0 f4 [80, 20]
00000000: 4453 103f 0d0f ec3e caae 61bd d15d a43d
00000010: bf1c a93b 86fb 4e3b cd4c 503e 5d9e 8d3e
00000020: b32e 09be 1503 8d3f 1233 abbe 6f9c 133f
00000030: e07a 6f3f 258d f13c 88a6 333d d216 a2be
00000040: db46 7c3f 70f7 563e 8271 fcbc 6cfc 4dbd
00000050: 8a3f e73c 7513 8c3e 37a6 5c3d f7cf cf3d
00000060: 1d7d 883e f900 8bbd 618b 0a3b ca82 bc3a
00000070: b25d 0e3e e62a a13c 315b 633e 08d6 5bbe
00000080: 1dc2 2dbe 361b c83f b3dc d03d 65bd 0cc0
00000090: 41e2 f33d 175e 203d 420e c23c bd3c efbd
000000a0: c7d7 453e 2729 88bd 2071 803c 316d 3c3b
000000b0: 15cd 81be e050 0f3e 2917 793c 4add 113e
000000c0: e6ed 6a3e 41df 14be c5de a2bc 1946 e13d
000000d0: 7b9c 13be fa19 0ebe f034 8abe 897f a9bc
000000e0: c32a e1bd 0f9a 8d3e b2c9 fe3d 5788 38be
000000f0: cba5 e9bd b89e ef3d 1827 7e3d dc85 333e
00000100: 145d 7a3d 565d 953e 79c7 57bb 0649 14be
00000110: c3ac 3ebc bbcc 08be d97d 423b fff1 64be
00000120: e9d1 053e eb79 2d3f c1f4 1e3c da5d abbd
00000130: 8af4 ffbd 2f34 383e 6af7 613a 855a 0a3d
00000140: de93 5c3e ae6b df3c 44a1 13bc 35fb b23c
00000150: 5b25 2e3d 363e 973e a8b6 84bd b07b f83d
00000160: 5dd1 f73d 5663 1cbd 1349 04bc a3cf bb3c
00000170: cb9f 993d 24d2 713d c65b 773d 4b28 6d3d
00000180: 2cf1 f03c 3d4d cd3d b95f cf3d 0c81 763e
00000190: 2c1b 26be ba9b 0fbc 022b bebd 9ebe 723a
000001a0: 4b7c 4f3e 99a1 793e 94dd c83d 1160 0ebe
000001b0: 86cf 0dbe d0bf 3abe 49a3 ffbc 04de 8b3c
000001c0: 8a45 bd3d 266c 89bf 36b8 d0bd 3a53 833d
000001d0: 1cac 863c 543a f9bd eb9e 0cbc a315 0dbe
000001e0: 67aa 3e3e 4126 253e f110 3d3c 83ae 393e
000001f0: 0203 04be 605c 1e3e cbaa 003e 545b d83a
00000200: b959 bf3d 2ff8 0dbe 65e8 73be 97d3 c23d
00000210: d29f 0a3e 632f f3bd 8041 8abd 9bc4 7f3c
00000220: 3e53 8f3d a7c6 9dbd 7c53 b1bd 0e67 5dbe
00000230: 1e76 fabd b4ff edbd f246 91bd e77b 573b
00000240: 35e6 5fbe a52e d1bd 9676 8a3e 21d6 823e
00000250: 9850 013e 6508 483e 2674 0c3e 272c 1a3e
00000260: 200c eb3c 8752 7bbd 77f4 6dbc 4983 1f3c
00000270: b20b a13c 0f17 823e d10c ab3d bf06 24bc
00000280: 8976 3dbf 0660 21be 97f8 99bd 3898 1d3e
00000290: aa1b 8cbd 4549 503d 0092 5e3e d326 413c
000002a0: 68d5 6f3c b8b5 513e 4449 44be 9653 42be
000002b0: b8d3 54bd ec48 08be e401 38be d468 b9be
000002c0: b0fa 423e d7ed 91bb c7b4 efbd 81a2 093e
000002d0: f058 323c 4e68 6d3e 28ec 22be e497 4b3e
000002e0: 0dd7 9cbd 64a9 9f3d 9607 f63d 4243 46be
000002f0: 1318 bfbd 2132 59bd 7d5f 173d b485 13be
00000300: 03e0 b0bc 5730 183e 21a9 9bbd 01c7 46bd
00000310: fd57 20b9 a5e2 86bd 0f2b 633e f609 673d
00000320: d3cc 53be 5383 b6bd 3448 1e3e 2f99 263e
00000330: 6370 1e3e c24f a7bc 2c2a e83e 46cf f6bc
00000340: 22c7 a4be 31e2 bcbd a143 eb3d 1f80 02bd
00000350: af70 a7bd 0eb3 323e 7e5a 483d a0ce 1dbe
00000360: a6d0 b73d f4ce fb3c 048f 0c3e a810 aebd
00000370: 7fe3 8640 cfbf f9bd f16b 22be 379c f63d
00000380: 6841 d63c 88b7 9ebe b50d dcbe 0113 9abd
00000390: 567f 1f3e 7acc a53e d180 253b d094 d1be
000003a0: d3dd 923e f0b4 3f3e 4685 2c3e 25d3 d0bd
000003b0: 47e5 833b a01e 95be b3dc 8b3b 60d5 8dbd
000003c0: f291 7c3e ba39 8d3e 69ae 56be f152 aebd
000003d0: b870 a33c b927 343e 7b93 40bd 2449 923d
000003e0: 4e0e f53d cd7a cabd da89 02be f814 71be
000003f0: 9da7 47be b1bd c5bf 11f1 cb3d a5df 973e
0.56377053 0.46105233 -0.055098332 0.080257066 0.0051608975 0.0031583025 0.20341797 0.27659884
-0.1339672 1.1016566 -0.334374 0.57660574 0.9354687 0.029486248 0.04385999 -0.31658036
0.98545617 0.20992827 -0.030815843 -0.050289556 0.02822854 0.27358595 0.053869452 0.10147088
0.26657954 -0.06787295 0.0021140205 0.001438224 0.1390293 0.019673776 0.22202756 -0.21468365
-0.1696858 1.5633304 0.10198345 -2.1990597 0.11908389 0.03915223 0.02368844 -0.11681507
0.19320594 -0.06648474 0.015678942 0.0028751607 -0.25351778 0.13995695 0.015203276 0.14244571
0.22942314 -0.1453829 -0.019881615 0.10999698 -0.14415161 -0.13877097 -0.26993513 -0.020690696
-0.10994484 0.276566 0.12440814 -0.1802076 -0.114085756 0.11700195 0.062049 0.17531532
0.061123922 0.29172772 -0.0032925291 -0.14480981 -0.011637869 -0.13359348 0.0029677062 -0.22357939
0.13068356 0.6776416 0.009701909 -0.0836751 -0.12497814 0.17988656 0.00086199364 0.033777732
0.21540782 0.027273025 -0.009010617 0.0218483 0.042516094 0.2953965 -0.064801514 0.121329665
0.1210048 -0.03818067 -0.008074063 0.022926157 0.07501181 0.059038296 0.060390256 0.057899754
0.029411875 0.10024498 0.101256795 0.24072665 -0.16221303 -0.008765155 -0.09285547 0.00092599716
0.20262258 0.24378051 0.09807888 -0.13903834 -0.13848695 -0.18237233 -0.03120579 0.017073639
0.09241779 -1.0736129 -0.101913854 0.064123586 0.01643949 -0.12169328 -0.008582811 -0.13777785
0.18619691 0.16127874 0.011539684 0.18132977 -0.12891772 0.15464926 0.12565152 0.001650671
0.09343285 -0.13864206 -0.2381912 0.09513014 0.13537529 -0.11874273 -0.067507744 0.015610839
0.06998299 -0.077039056 -0.086585015 -0.21621343 -0.1222956 -0.11621037 -0.0709361 0.0032880248
-0.21865161 -0.10213975 0.270436 0.25553992 0.126284 0.19534452 0.13716182 0.15055905
0.028692305 -0.061358 -0.014523617 0.009735891 0.019658897 0.25408217 0.08352054 -0.010011374
-0.74008995 -0.15759286 -0.07518118 0.15390098 -0.06841214 0.050851125 0.21735382 0.011789042
0.014638282 0.20479476 -0.19168574 -0.18977198 -0.051959723 -0.13309067 -0.17969471 -0.3621279
0.19040942 -0.0044534015 -0.117044024 0.13440897 0.010885462 0.2318432 -0.15910399 0.1988216
-0.07658205 0.077959806 0.12013166 -0.19361594 -0.09330764 -0.053026322 0.0369563 -0.14406472
-0.021591192 0.1486219 -0.07600618 -0.04852963 -0.00015291567 -0.06586198 0.22184394 0.056405984
-0.20683603 -0.08911767 0.15457231 0.16269372 0.1547256 -0.020423774 0.45344675 -0.030128133
-0.32183176 -0.0922283 0.114875086 -0.031860467 -0.081757896 0.17451116 0.048914425 -0.15410852
0.089753434 0.030738331 0.13726431 -0.08499271 4.2152705 -0.12194788 -0.15861489 0.12041514
0.026154235 -0.30999398 -0.42979208 -0.07523156 0.15575919 0.32382566 0.0025253783 -0.40933847
0.28684863 0.18721366 0.16847715 -0.101965226 0.0040251347 -0.29124928 0.0042682528 -0.06925464
0.24665049 0.27583104 -0.2096497 -0.085119136 0.01995121 0.17593278 -0.04701565 0.07142857
0.11965619 -0.09886704 -0.12747899 -0.23543155 -0.19497533 -1.5448514 0.09958089 0.29662815

lstm.bias_ih_l0 f4 [80]
00000000: 4bbc 9f3c eecb 34be 3cf0 0ebe 80a7 033e
00000010: 06b4 f23d f9a9 be3c 5d90 dd3d 7a67 c4bd
00000020: c7ea 5cbd 4094 04be 79e9 513e ec70 8abc
00000030: c73f 40be 4766 f03d b650 66bd d330 d93e
00000040: 30f2 32be bab6 7a3d b000 4c3e 833a cf3d
00000050: cbc2 b63d 71ad 37be 36be 213d db7c 47be
00000060: b341 0f3c ec89 e73d ff85 f23d c168 163e
00000070: 7991 f33d 9056 d13d 5856 893e 862f 3a3e
00000080: ea0a 42be 0e9d e33c aad6 6e3d 6f44 c3bd
00000090: 8a15 e2bd 8149 963d ee21 24bd 89a6 15bc
000000a0: 7b83 e0bd 5168 8e3e 514e 3f3d b48f e03d
000000b0: 28a2 0d3d bb4f 10be 8724 803d 2e41 67bd
000000c0: 6183 5c3d d1b3 20be b4e5 683c 9352 f7bb
000000d0: 7b0d fc3d 4d08 0bbe a731 94bd ff83 22bd
000000e0: 3465 553e 8521 4e3e ed1f 9cbb 061c 28bd
000000f0: 225a ee3d 00f2 993c 4a7a 9a3e 166a 143e
00000100: 7b2d acbc 2ee3 013e 47ec 593d 330e 653e
00000110: 2958 52be 8245 933d 8d3c 943e 8670 843a
00000120: 21b7 fe3d d07f 6e3e 41f2 543e ac67 163e
00000130: 736c 82be c98f 563e 0b03 583e 1cba 74be
0.019498965 -0.17655918 -0.1395883 0.12856865 0.11850743 0.023274409 0.10818551 -0.09590049
-0.05393484 -0.12947178 0.20499219 -0.016899548 -0.18774329 0.11738258 -0.056229316 0.42420062
-0.174752 0.061209418 0.19922137 0.10118582 0.089238726 -0.17937256 0.03948804 -0.19481222
0.008743691 0.113056034 0.11841964 0.14688398 0.11892981 0.102215886 0.26823688 0.18182191
-0.18949476 0.02778485 0.05831019 -0.09534537 -0.110392645 0.073382385 -0.04007142 -0.009133943
-0.10962578 0.27813962 0.046705548 0.10964909 0.034578472 -0.14092915 0.06256967 -0.056458645
0.05383623 -0.15693595 0.014214922 -0.0075476854 0.12307259 -0.13577385 -0.07236033 -0.039676663
0.20839387 0.20129974 -0.004764548 -0.04104235 0.11638285 0.018792152 0.30171424 0.14493594
-0.02101778 0.12684318 0.053203847 0.22368698 -0.20541443 0.07190992 0.28952447 0.0010104335
0.12437273 0.23290944 0.20795538 0.14687985 -0.25473365 0.20953287 0.21094911 -0.2389912

lstm.bias_hh_l0 f4 [80]
00000000: a314 073e 2f70 993d b65c 44bd 8748 fe3d
00000010: aec5 5a3e 4774 4dbe 66f3 283e e9c6 4e3e
00000020: 0b29 3a3e 2f44 58be b788 713e 078d b0bd
00000030: f690 f43d ce44 7fbd cd0c 743d c6e7 3b3e
00000040: f975 06be 7052 c63c 16df 0b3e adf5 7bbd
00000050: 374d 2e3d 1d46 10be f2b3 163e f09e 873b
00000060: cdd2 163e b2e1 453e ab21 f1ba fe89 2e3e
00000070: 8d41 053e 6abe 1b3e f54a 5c3e e6b7 c63d
00000080: 6349 29be f8d3 4abe 63b7 4e3e a066 71bd
00000090: fb14 0b3c f267 2d3e a3c6 723e 344a 90bd
000000a0: 286c 24be a67d 87bd 7f8e f63d aa76 583e
000000b0: e71e 1abe bdc7 733e d034 0abd 31cd 04be
000000c0: dc5b 56be 1b29 37be ec5c 44be c81b 6abe
000000d0: ac5d b93d bced 34be c6cb 05be 249b 893d
000000e0: 15c0 8dbd 6758 793e 578a 173e 4d37 ec3d
000000f0: b2e5 6d3e 9e11 833e 1536 1b3e 2ebe f3bd
00000100: 3229 5c3e 1a4e 1f3e d46b 1b3d 723f be3d
00000110: d3c2 ca3c 1ac2 a93d 1fcb cb3b a96d cd3d
00000120: 61fc 81be 1d1a 373e c90f ad3d 9471 9e3d
00000130: 998e 903d 1178 2c3e f26a 8a3e ff59 ed3b
0.13191466 0.074921004 -0.04793998 0.12416177 0.21364471 -0.20063888 0.16499099 0.20193066
0.18179719 -0.2111976 0.23587309 -0.08620649 0.119417116 -0.062321477 0.05958252 0.18350133
-0.1313094 0.024209231 0.1365932 -0.06151359 0.042554107 -0.14089246 0.14717081 0.00413882
0.14728852 0.19324377 -0.0018396875 0.17044827 0.13013287 0.15209356 0.21512969 0.097030446
-0.16531901 -0.19807422 0.20187144 -0.05893576 0.008488889 0.16934183 0.23708586 -0.07045403
-0.16056883 -0.066157624 0.12038898 0.21139017 -0.15050851 0.23806663 -0.033741772 -0.129689
-0.20933479 -0.17886774 -0.19176072 -0.2286216 0.090510696 -0.17668813 -0.13066015 0.06719044
-0.06921402 0.24350129 0.14798866 0.11533985 0.23232153 0.25599378 0.1515735 -0.11901508
0.2150009 0.15557137 0.03794463 0.09289445 0.024751103 0.08288975 0.0062192823 0.10030682
-0.25387862 0.17881055 0.084502764 0.07736507 0.07058448 0.16842677 0.27034718 0.0072433944

linear1.weight f4 [1, 20]
00000000: 5810 00c0 6a80 f33f bf01 753e d804 863d
00000010: 5e12 02be 06f7 4c3e cae7 723e c4c8 453e
00000020: a3a0 50bf 085f f0bd 0888 17be 80ee 1cbe
00000030: 1f79 d3bd 6723 7bbf bee0 fabd 27d6 12c0
00000040: bdbf c23d e702 253e 94d5 39be eb81 8bbd
-2.0009975 1.9023564 0.23926447 0.065438926 -0.12702319 0.20016107 0.23721233 0.19314867
-0.8149511 -0.11736876 -0.14797986 -0.15325356 -0.103258364 -0.98100895 -0.122498974 -2.2943208
0.095092274 0.16114388 -0.1814788 -0.06811889
